artifacts/js_codet5p/classifier.pt (torch, 7997 bytes, 2 tensors)

weight f4 [2, 768]
00000000: 9368 033d 4f89 a2bb 7a45 c13c 4488 083d
00000010: 1509 0e3d 375d ffba 236f a53c 03d8 cd3c
00000020: 7dca e7bc b79e 923b 9da3 aebc 4d4e b43c
00000030: b61a 03bc e832 98bc f5d3 84bb d289 ae3b
00000040: 0e8e ea3c 750e c3bc b16a e3bb f43d ebbc
00000050: 40dc 2dbc 6422 a53c 9ed1 fbbc 0930 e2bc
00000060: a7e1 69bb 9568 b0bc 6672 89bc 0ad6 c63c
00000070: eb60 b83c 6f55 dfbb 3e0b b63c 348f a63b
00000080: 143a 08bd 52d6 85bc e576 d03c 84b3 afba
00000090: 3d41 44bc bfa5 61bb e1cf 6f3c 962c 0dbd
000000a0: 0395 8a3c 08d2 c23c d8e5 adbc 2ee7 d5bb
000000b0: c776 3d3c 64b1 103d 1d6e 05bc 15f1 07bd
000000c0: 70d3 013d 271b 00bd e5d3 3a3c dd93 cd3c
000000d0: 339b b73c 6ed0 c3bb c0b4 663c 120b 173c
000000e0: 912e a5bc f16b e03c 0150 e9bb 91a9 a93b
000000f0: c50c 0cbd 8c86 9cbc e32b 04b9 d72d 04bd
00000100: 4a93 af3b 9d11 123d d6a8 f63c f9bd 3e3c
00000110: 5683 b7bc 0ba3 b1ba 856a 003d 23da d23c
00000120: 3086 f4bc aa1b 7f3c 6494 febc 49ce 5a3c
00000130: f2c7 123d b789 0a3d 3c41 5abc 4dac bd3c
00000140: d775 8b3c 07d4 233c c9fa a7bc a8ed 993c
00000150: 36bb 153d d4c9 70bb dbb2 4f3c c6d6 483c
00000160: 2144 e73a ee79 d43c 4b1a f0bb 60ad 01bd
00000170: 3a1c 0b3d f194 853c 0ad8 ccbb 08e4 6f3c
00000180: ba07 0f3d 17a0 a3bc 0e60 03bd 935b 73bc
00000190: f3b2 073d cedb 9a3a c10a 08bd ce17 e73c
000001a0: 106f 0f3d faef e93c 4789 a4bc c6c8 e0bc
000001b0: 7243 0ebd 50a4 87bc aceb 0bbd a686 b7bc
000001c0: ad73 083d ee34 963c 004c 02bc e547 8a3c
000001d0: 8d6d dbbc 827b f3bc ff61 67bc af2e 2f3b
000001e0: f963 10bd 2578 113d d9f2 ecbc b29e 8c3b
000001f0: 79bd 0f3d bc85 7fbc e972 72bc d221 84bc
00000200: b7ff 5e3b 3828 423b 8221 eabc 05f9 cd3b
00000210: bd7c b1bb 161e d73c 0d28 6dbb d1ee ed3c
00000220: 9f1f 8b3c 00fa a33c 2591 dc3c 0cc1 333c
00000230: e31a b3bc bc6f a0bb 0661 6f3c 790c 8abc
00000240: 6588 0a3d 465e 0cbd de8f 5dbc c4e2 7f3c
00000250: 3474 85bb 7732 6e3a e448 f3bb 44b8 f03c
00000260: 2f6b 02bc ecd5 86b9 40d5 13bd f4e3 febc
00000270: faf0 ac3b 3e06 aabc 0136 c5bc 3e25 77bb
00000280: 122b e6bc e1f5 cb3b cf18 f83c 27e9 bd3c
00000290: e2ed cfbc 692c 6abc 6d1d 063d 8985 0e3d
000002a0: 2298 d8bc 0dda d43c eb54 423b c4a5 d73c
000002b0: 5931 a4ba cf85 a0bc ff49 043b 143c 81bc
000002c0: 579a c13c cab8 96bc aacc ef3c 5bce a2bc
000002d0: f4e3 b13b de6b bbbc 8a40 f43c 6690 25bc
000002e0: 46a2 1c3c 3e1e e7bc ffd2 883c 1c6f 1e3c
000002f0: ba31 05bd 46d6 ea3c 052d 01bd 882c 4cbc
00000300: 76ed 253c f455 98bc df48 0e3d 324f e13c
00000310: b8ab 63bc a575 86bb 56db 82bc 679c 093c
00000320: 73f7 de3c a636 be3c 045f 4fbb da6d ebbc
00000330: f92b 1d3c 5999 4e3c b955 0dbb a0dc d5bc
00000340: da02 08bd df25 c73c 56a4 eebc c0d0 b63c
00000350: 61a2 873c 514d 9d3c e35d e13c ea7e dd3b
00000360: 1f28 b33c b98b a03c 3018 893c be0c cbbb
00000370: 55d5 c53c c4e0 9b3c 8883 b23c 4128 103d
00000380: f73c 00bb d919 a43c 04fd f43c 67c2 a6bc
00000390: 620f 023c 82f1 f83c bd35 ee3c a720 fabc
000003a0: 26a0 c83b 3f2c 3c3c 0f55 a9bc 5baa 09bd
000003b0: 89b0 843c 5855 083d 6db7 083c 944d 733c
000003c0: c6d6 693c 0005 a53c 4305 d2bc ad51 9bbc
000003d0: 6256 ffbc 4ecb f9bc 1126 e73c 6ed5 17bc
000003e0: 2127 b93c 20da da3c 7acf 65bb de5e d23c
000003f0: 23d4 0e3d 1777 61bc 8aa9 dfbc 0b5c 07bd
0.03208215 -0.004960216 0.0235927 0.033333078 0.03467663 -0.0019482736 0.020194596 0.025127416
-0.028294796 0.0044744867 -0.021318251 0.022009993 -0.008001974 -0.018578961 -0.0040535876 0.005326488
0.02863219 -0.023810605 -0.006940209 -0.028716065 -0.010611594 0.020158 -0.030739602 -0.027610796
-0.0035687478 -0.021534244 -0.016778182 0.024271984 0.022507152 -0.0068156044 0.022222158 0.005082989
-0.033258513 -0.016337547 0.025447318 -0.001340494 -0.011978445 -0.0034431068 0.014636965 -0.03446635
0.016916757 0.023781791 -0.021227762 -0.006527803 0.011563963 0.035325423 -0.008143929 -0.033188898
0.031695783 -0.031275894 0.011403059 0.02509492 0.022412872 -0.0059757745 0.01408118 0.009218948
-0.020163806 0.02739522 -0.007120133 0.0051776846 -0.034191865 -0.019107126 -0.0001260485 -0.03227028
0.0053581344 0.03566133 0.030109804 0.011641973 -0.022401493 -0.0013552619 0.031351585 0.025738781
-0.029849142 0.0155705605 -0.031076618 0.013354846 0.035835214 0.03382274 -0.013321217 0.023153448
0.017023964 0.009999282 -0.020505326 0.018790081 0.03655549 -0.0036741393 0.01267692 0.012258237
0.0017644205 0.025937047 -0.007327353 -0.031659484 0.033962466 0.016306372 -0.00625134 0.014641769
0.034919478 -0.019973798 -0.032074027 -0.014853376 0.033129644 0.0011814774 -0.03321338 0.028209593
0.035018027 0.028556813 -0.02008499 -0.027439486 -0.03473229 -0.016557842 -0.0341603 -0.022403073
0.033313442 0.018335786 -0.00795269 0.016879985 -0.026785636 -0.029721979 -0.014122485 0.0026730706
-0.03525159 0.03551497 -0.028924393 0.004291379 0.035092805 -0.01559585 -0.0147979045 -0.016129408
0.003402693 0.0029626023 -0.02858043 0.006285789 -0.0054164813 0.026259463 -0.0036187202 0.02904454
0.016982852 0.02001667 0.026924679 0.010971319 -0.021863407 -0.0048961323 0.0146105345 -0.01685165
0.033821482 -0.034269594 -0.01352307 0.01561803 -0.0040726904 0.00090864993 -0.0074244607 0.02938474
-0.007960125 -0.00025717856 -0.036092043 -0.031114556 0.00527775 -0.02075493 -0.024073603 -0.0037711407
-0.02809671 0.0062243794 0.030285267 0.023182465 -0.025381986 -0.014292815 0.032742906 0.034795318
-0.02643973 0.025982881 0.0029652666 0.02632416 -0.0012526914 -0.019595055 0.0020185707 -0.015775718
0.023633165 -0.018398661 0.029272396 -0.019873789 0.0054287855 -0.022878584 0.02981593 -0.010105228
0.009560173 -0.028212663 0.016702173 0.009670045 -0.032518126 0.028666627 -0.031537075 -0.012461789
0.010127416 -0.018595673 0.034737464 0.027503584 -0.013895921 -0.00410338 -0.015973728 0.008399106
0.027217602 0.023219418 -0.0031642327 -0.028738905 0.009593003 0.012609803 -0.0021565987 -0.026106179
-0.033205844 0.02431005 -0.029131096 0.022316337 0.01655692 0.019201906 0.027510589 0.006759514
0.021869717 0.019597875 0.016735166 -0.0061965873 0.024149576 0.019028075 0.021791235 0.03519464
-0.0019567588 0.020031856 0.029905804 -0.02035637 0.007938238 0.030388597 0.029078359 -0.030533148
0.006122607 0.0114851585 -0.020670442 -0.03360973 0.01619746 0.033284515 0.008344513 0.014850039
0.014272397 0.020143986 -0.025637275 -0.018959844 -0.03116912 -0.030492451 0.028216394 -0.009267194
0.022601666 0.026715338 -0.0035066293 0.025680002 0.034870278 -0.013761303 -0.027302522 -0.033046763

bias f4 [2]
00000000: ed95 e13b 7a9f 393c
0.0068843276 0.011329526
