artifacts/js_codet5p/classifier.pt (torch, 7997 bytes, 2 tensors)

weight f4 [2, 768]
000000 9d f6 d0 bc 48 35 10 bc b5 73 4b bc ee 70 cf 3c
       -0.02550822 -0.008801766 -0.012417723 0.025322404
000010 1f c7 51 3b 45 3e 9d bc 80 69 86 3c cb 11 89 39
       0.0032009555 -0.019194731 0.016407728 0.00026143933
000020 a0 76 8d ba af da a2 bb 31 9a a4 3c e8 68 ea 3c
       -0.0010792799 -0.004969917 0.020093055 0.028614476
000030 10 b5 7b 38 2d 08 cc bc 74 84 cf bc e2 4a 00 bc
       6.001169e-05 -0.024906242 -0.025331713 -0.007830353
000040 cc 2c ad 3b 71 c7 cd 3c 49 bc 6f 3c 90 56 03 3d
       0.005284881 0.025119515 0.014632293 0.032064974
000050 90 5e e3 bc 5c d5 06 39 13 33 96 bb 65 8c 7a 3c
       -0.027755052 0.00012858718 -0.0045837252 0.015292262
000060 b3 2c 07 3d df d7 0f 3d b1 05 a5 bc 47 97 73 3c
       0.033001613 0.03511798 -0.020144315 0.01486761
000070 aa ea 85 bb ff 3b 5e 3c d5 e8 a8 3c be f3 3a bb
       -0.004086812 0.013564109 0.020618835 -0.002852663
000080 7b c7 18 bc 4e 72 de 3c 41 72 c0 3c 3f d2 17 bb
       -0.009324904 0.027154114 0.02349198 -0.0023166088
000090 ee db 81 bc b1 46 75 bc 2b 74 d0 3c db 2a f8 bc
       -0.015851941 -0.014970467 0.025446018 -0.030293873
0000a0 88 41 d1 bc 78 15 d7 3c 43 46 e1 bc c8 49 33 bc
       -0.025543943 0.026255354 -0.027499324 -0.010942884
0000b0 c9 1b 69 bc d6 18 fb bc 09 11 45 bc 8b 9a c2 bc
       -0.014227816 -0.030651491 -0.012027987 -0.023755332
0000c0 ca ec a7 ba 67 c6 83 3b 3f b4 ff 3c a9 ec e1 3c
       -0.0012811658 0.004021454 0.031213878 0.027578669
0000d0 f5 f5 d6 3c 35 34 50 bc dc 61 2e bb 2b 46 cd 3c
       0.026240328 -0.01270776 -0.0026608622 0.025057873
0000e0 46 c5 ab 3c 21 5c 2b 3b 1d 35 70 3b 04 c6 08 bd
       0.02096809 0.0026147442 0.0036652752 -0.033391967
0000f0 34 a3 02 bd df 7e 05 3d 53 70 94 3a c0 1c 8a 3c
       -0.031893924 0.032591697 0.0011324979 0.016859412
000100 0d 27 8d 3c 24 5b 95 3c 3d a2 2a 38 08 61 d1 3c
       0.017230535 0.018231936 4.0682255e-05 0.025558963
000110 38 e7 b4 bc d1 ce 84 bc d6 b0 a7 3c 0d b3 dd 3c
       -0.02208291 -0.016211899 0.020470064 0.027062917
000120 ba 55 91 bc ce 1d d3 3c bf df 19 3c a9 35 b4 3c
       -0.017741073 0.025771048 0.009391724 0.021998243
000130 2d 15 ae 3c 9c 76 b4 3b 97 7c 9c 3c ca 2c c9 3b
       0.021250332 0.0055073034 0.019102378 0.0061393725
000140 31 f1 a7 3c 82 61 83 bc 18 f1 eb 3c e0 f6 fa bb
       0.020500751 -0.016037706 0.028801486 -0.0076588243
000150 85 60 03 bd 59 c0 97 bc 0a d3 97 bc c1 90 07 3d
       -0.03207447 -0.018524336 -0.018533248 0.033097032
000160 25 75 ce bc 33 71 a7 3c ea 93 06 3d 4d f7 b5 bc
       -0.025202343 0.02043972 0.032855906 -0.022212649
000170 68 c4 23 3c 50 44 0a 3d fe 1b af 3c 78 5e 3f bc
       0.009995557 0.033756554 0.021375652 -0.011680238
000180 06 e9 17 3a 89 b7 05 bd 81 19 7b bc b0 68 c9 3c
       0.0005794916 -0.032645736 -0.015325905 0.024586052
000190 9b 1d da 3a cd 88 ef bc 81 60 25 bc fd 13 eb 3c
       0.0016640903 -0.029240036 -0.010093809 0.028696055
0001a0 12 2c a8 3a bc e3 fa 3c d1 d6 61 3c e4 b4 ba bc
       0.0012830517 0.03062617 0.013784126 -0.022791333
0001b0 91 39 07 bd 7c 83 97 3b 09 61 c7 bc b4 1d b2 3c
       -0.033013884 0.0046238285 -0.024338262 0.02174268
0001c0 a4 60 cd 3b aa 0d fa 3c 6f f8 66 3c 35 77 62 bb
       0.006267624 0.030524094 0.014097317 -0.0034555916
0001d0 ef 37 b8 bc 38 74 aa 3c 64 3c ad 3c c7 ca 06 bd
       -0.022487609 0.02080737 0.02114696 -0.032908227
0001e0 5e 2a a6 3c 9b b2 44 3b cc 76 e3 bb 71 66 e4 bc
       0.020283874 0.0030013684 -0.006941652 -0.02788088
0001f0 2d aa ae bc bd f1 ab bc 9d df fd 3c 3c 08 98 bc
       -0.02132138 -0.020989293 0.030990416 -0.018558614
000200 58 e8 b2 3c 16 06 0c 3d b8 cc dc bc 87 1c 8f bb
       0.021839306 0.03418549 -0.026953086 -0.0043674144
000210 6e 05 84 3c 65 b2 9d bc 04 d0 72 bb a2 4f 86 3c
       0.01611587 -0.019250104 -0.0037050257 0.016395394
000220 e2 5a 6e bc fe 3b ab bb 4e 7e 04 3d c3 80 04 bd
       -0.014548035 -0.0052256575 0.032347016 -0.03234936
000230 fd d1 d3 bc 74 1f b5 3c 2f 47 e1 3b e3 ec fd bb
       -0.025856966 0.022109725 0.006874941 -0.0077491864
000240 d0 76 ab bc 11 8f ed bc 6f 1c 61 bc 0e 52 d7 3c
       -0.020930678 -0.028998883 -0.013739689 0.026284244
000250 3a 99 0e 3d 32 b7 ae bb 55 1e 60 bc 7b f7 72 bc
       0.034814097 -0.005331897 -0.013679107 -0.014829512
000260 e2 31 d9 bc 04 1a fb bc 4d a5 cd 3c 93 bb 11 bd
       -0.026513044 -0.030652054 0.025103236 -0.035579275
000270 d5 c6 fa 3c e1 63 f9 3c 50 0c 0e bd 55 2c 03 bc
       0.030612389 0.030443134 -0.03467971 -0.008006175
000280 59 8e f8 bb 45 c3 f1 3c e2 22 3d 3b 77 3d 88 bc
       -0.0075853285 0.029512057 0.0028859903 -0.016630871
000290 27 69 cf bc 10 c3 af 3b 68 03 3e bc 58 74 c2 3c
       -0.025318695 0.0053638294 -0.011597492 0.023737118
0002a0 57 d8 29 bc 9f fb f7 bc ff 57 8c bc 58 f9 84 bc
       -0.010366521 -0.03027135 -0.017131804 -0.016232178
0002b0 3a b4 42 b8 20 c0 d1 bc a3 57 61 3c 37 5f a4 3c
       -4.6421053e-05 -0.025604308 0.013753804 0.020064933
0002c0 76 31 88 3c a3 2d 0a bd cc 8b 4e 3c 5f ed ac 3c
       0.016625147 -0.03373493 0.012606572 0.021109281
0002d0 80 ee f4 3c 18 62 6f bc c9 2e 7d 3c 55 63 e5 bc
       0.029898882 -0.01461079 0.015453049 -0.028001467
0002e0 25 14 56 3c 2a 2e d8 bc e1 dc 61 bc 28 92 74 3c
       0.013066326 -0.0263892 -0.013785572 0.0149274245
0002f0 18 a8 82 bc 20 94 de 39 68 6e 79 3c d3 40 87 3c
       -0.015949294 0.000424535 0.015224077 0.016510403
000300 ea 30 f0 3c 73 9e d5 bc b6 1c 0b 3d b6 f6 bf ba
       0.029320199 -0.026076531 0.033962928 -0.0014645669
000310 29 a2 7a bc d0 eb c2 3c f0 1b 6a 3c 38 9b 0e bd
       -0.015297451 0.023794085 0.014288887 -0.034815997
000320 b2 85 2b 3c d0 8c f5 bc dd 7f 84 3c e8 44 3b 3c
       0.010468887 -0.029974371 0.016174251 0.011430003
000330 6e f3 4c bc 8a f9 43 3c 36 88 0f 3d 88 42 e0 bc
       -0.01250921 0.01196135 0.03504201 -0.027375475
000340 40 e7 02 bd 75 cb d3 bc 3a 3b ea 3b 1a 2a e2 bc
       -0.03195882 -0.025853852 0.0071481736 -0.027607966
000350 1e 35 0a bc 8f 39 00 3c 00 24 34 3b a3 52 5e bb
       -0.008435516 0.007826223 0.0027487278 -0.0033923767
000360 bf 4c 1e 3b a1 58 7b 3c 30 85 0b 3d cf 17 82 3b
       0.002415463 0.015340955 0.034062564 0.0039701234
000370 0f 9e db 3c 7b 88 a1 bc aa 6c ff bc 5d 57 ce bc
       0.026808767 -0.0197184 -0.031179745 -0.025188142
000380 f3 10 21 bb 8e 2d 0e bd d2 34 5e 3b 18 e8 53 bc
       -0.0024576753 -0.034711413 0.0033905995 -0.012933753
000390 a6 69 99 bc 72 ca 03 3d 0c f2 90 3c d7 d4 ed bb
       -0.018727135 0.03217549 0.017693542 -0.0072580385
0003a0 a2 bd fb 3c f7 99 0d bd a9 22 de bc b3 d4 c2 ba
       0.030730072 -0.03457066 -0.027116137 -0.0014864415
0003b0 d1 a3 63 3c be 6b 27 3c 59 6d 6b bc e4 03 09 3d
       0.013894037 0.010218559 -0.014369332 0.033450976
0003c0 b8 6c c8 bc 66 a7 9b bc 0c b8 de ba 57 ba 0d bb
       -0.024465904 -0.01900072 -0.0016992106 -0.002162596
0003d0 cb 59 e8 3b 88 f9 0a 3d 68 c4 b2 bc fc 46 01 bd
       0.0070907823 0.033929378 -0.02182217 -0.031561837
0003e0 77 3a f5 3c 9b 57 b8 3c 33 56 9d bb 3a 4f bc 3c
       0.029935105 0.022502711 -0.0048015355 0.022986997
0003f0 be ab 18 3c 4b 21 07 3d 20 ce 8a 3c 27 b5 00 bd
       0.00931829 0.032990735 0.016943991 -0.03142276

bias f4 [2]
000000 66 ad fd 3c a6 e6 eb 3c
       0.030966472 0.028796505
