artifacts/js_codet5p/classifier.pt (torch, 7997 bytes, 2 tensors)

weight f4 [2, 768]
000000 0d 40 fd 3a 5a 8c ff 3b 21 e1 0e 3d b5 fd a4 3c
       0.0019321457 0.0077987136 0.03488267 0.020140508
000010 a0 6f 33 bc 3b 88 36 3c 87 2c 2c bc 55 4d 49 3c
       -0.010951906 0.011140878 -0.010508663 0.012286504
000020 c6 a7 d8 3b e8 68 ea bb 97 8b e1 bb 9a 89 05 3c
       0.006611797 -0.007153619 -0.0068830955 0.008150483
000030 41 af 7c bb e1 bc b8 bb fa a4 51 bc f7 e6 10 bc
       -0.0038556608 -0.0056377505 -0.012795681 -0.008844129
000040 fa e3 b1 3c e5 90 93 bc 19 67 82 3c 1a cd 00 bd
       0.021715153 -0.018013427 0.015918301 -0.0314456
000050 44 76 47 bc f5 e1 e4 bc a0 02 f5 3c 60 21 c4 bc
       -0.012174193 -0.027939776 0.029908478 -0.023941696
000060 37 af 17 3d 3e 75 91 3c ce ed 41 3b bf 14 6d 3c
       0.037032332 0.0177561 0.0029591206 0.014470278
000070 0f 21 b8 bc 42 77 12 bc fa ea 0c 3d 99 e4 37 3c
       -0.022476701 -0.008939566 0.03440378 0.0112239355
000080 39 a4 71 bc 69 d5 49 bb b6 39 a7 3c f9 dd fa bb
       -0.014748626 -0.0030797368 0.02041326 -0.0076558557
000090 60 25 73 bc 01 6d f8 bb 6b b5 58 3c 9f 9b 8e bc
       -0.014840454 -0.0075813537 0.013226847 -0.01740819
0000a0 c8 0c d1 bc 40 bb 7e bc dc 2c bb bb 3c 7c 90 bc
       -0.02551879 -0.015547574 -0.0057121348 -0.017637365
0000b0 cf 7a d9 3c ec bb c0 bc 3b 93 c6 3b b8 c6 1e bc
       0.026547818 -0.023527108 0.0060600317 -0.009690933
0000c0 a5 36 09 bd bb cd 89 3c f4 c5 89 3c 9b 32 a9 bc
       -0.03349938 0.016821733 0.016818024 -0.020654013
0000d0 50 c6 81 3c 41 4e 1d 3c 60 b2 26 3c 35 91 b6 3c
       0.015841633 0.009601177 0.010174364 0.022286037
0000e0 07 bf ba 3c b3 40 0a 3d 07 f0 e1 bc 9a 24 14 3d
       0.022796167 0.03375311 -0.027580274 0.03616772
0000f0 d2 aa dd 3c 2c 77 03 3d 9a 69 a4 bc 91 84 df 3c
       0.027058993 0.032096073 -0.020069886 0.027284892
000100 5c e1 3e bc c0 ba f8 3c d3 65 c9 bc c3 30 e4 3c
       -0.01165041 0.030362487 -0.024584686 0.027855283
000110 1e 68 94 bb 27 a6 9b 3c be 8d a9 3c 54 3f bd 3c
       -0.0045290133 0.019000126 0.02069747 0.023101486
000120 24 94 f0 3b 6a 53 cc bc 7d 9c db bc 9a b7 9e bc
       0.0073418785 -0.024942119 -0.026808018 -0.019374657
000130 eb 43 05 3d 52 92 7c bc 84 c0 a4 bc ac c2 46 3c
       0.032535475 -0.015415745 -0.02011133 0.012131374
000140 08 27 0f 3d b4 c2 81 bb 83 bd 35 bb 87 e8 8e bb
       0.034949332 -0.003959978 -0.0027731366 -0.0043612155
000150 9d 80 f8 bc d3 48 bd 3c 5e f6 aa 3c d2 c9 f2 3a
       -0.030334765 0.023106014 0.02086943 0.0018523282
000160 00 a0 f8 3c 9b 80 bd 3c 6f 13 06 bc 96 28 01 bd
       0.030349731 0.023132613 -0.008183344 -0.031532846
000170 f5 3c f4 bc 3f 36 5e 3c 3e cd e6 bc a3 96 15 3d
       -0.029814223 0.013562738 -0.028174039 0.03652061
000180 a3 f7 d9 3c 3a 06 39 bc 8d 05 be bc d8 2c 2d 3a
       0.02660734 -0.011292988 -0.023196006 0.00066061085
000190 43 f3 56 3c 42 d7 82 3c 06 e9 f5 bc 71 77 78 3c
       0.013119522 0.015971784 -0.03001834 0.015165196
0001a0 f7 87 74 bb 9c d6 99 3c f4 d6 0f bd aa 4d a4 bc
       -0.0037312487 0.018779092 -0.035117105 -0.020056564
0001b0 6a ba 0d bd dc 28 23 bc 3f 42 a8 bc e1 a9 ef bb
       -0.034601606 -0.009958472 -0.020539401 -0.0073139523
0001c0 29 dc 01 3d 1c 06 13 bd d5 aa 84 bb 9c a7 c7 3c
       0.0317041 -0.0358945 -0.004048685 0.024371915
0001d0 52 2c d7 bc 88 49 31 3c 46 51 11 bd c1 d7 a0 bb
       -0.02626625 0.010820754 -0.0354779 -0.0049085324
0001e0 24 c6 2f 3b fb 65 fc bc 0b 47 0a 3d da 0e ec 3c
       0.0026820982 -0.030810347 0.033759158 0.028815676
0001f0 83 97 ae bc 5e c7 f0 bc 3c c5 4b 3c 96 e1 03 bd
       -0.02131248 -0.02939194 0.012437161 -0.032197557
000200 da f8 f9 3b b1 f3 95 3c 34 e6 c8 3c c8 56 b4 bc
       0.0076285424 0.018304678 0.024523832 -0.022014037
000210 3b b1 95 bc 44 6e fb 3c 73 cb ab 3b 8a b9 8d bc
       -0.018272987 0.030692227 0.005242759 -0.017300386
000220 54 a9 8f 3a ca ef 01 bd 7f 0d 1a 3c 42 3e 4e bc
       0.0010960498 -0.03172282 0.009402632 -0.012588086
000230 8a 5f a7 3c 2d ec bd bc 2c d7 c8 bc d5 a5 87 3c
       0.020431299 -0.023183906 -0.024516664 0.016558567
000240 98 be d8 3c 36 97 74 3c b2 f0 a4 bc 77 f2 d9 3a
       0.02645807 0.01492863 -0.020134304 0.0016628046
000250 59 c1 21 bc 76 0a d1 bc 7e 72 fc 3c 07 f7 c9 bc
       -0.009872758 -0.025517683 0.030816313 -0.024653925
000260 9f cc 03 3d 75 29 3f ba 15 93 01 bd ba d2 16 3c
       0.032177564 -0.00072922494 -0.03163441 0.009205515
000270 17 a1 84 bc 79 a0 83 3b 4b b3 cc 3b af e0 35 3c
       -0.016190095 0.0040169326 0.0062469593 0.011100932
000280 38 9e 09 bd 93 b1 06 3d ac c7 cd bc 88 21 20 bc
       -0.033598155 0.03288419 -0.025119625 -0.0097736195
000290 ab 37 0f 3d e2 2b 03 bd be 4c af bc 88 f5 22 3c
       0.0349652 -0.03202427 -0.021398898 0.0099462345
0002a0 b0 8a 89 bc c8 90 dc bc 5a c3 d7 bc a5 ec 9a bc
       -0.016789764 -0.026924506 -0.026338268 -0.018911669
0002b0 45 f4 82 3a f4 77 05 3d 32 9d 9c 3b 27 19 0b bd
       0.0009991011 0.0325851 0.0047794813 -0.033959534
0002c0 94 ce 70 bb 3f 63 76 3b c0 54 9f 3c b6 d0 8f bc
       -0.0036744224 0.0037595776 0.019449592 -0.017555576
0002d0 86 3c f7 bc b4 a0 82 bc d7 5e e3 bc 17 d1 b2 3c
       -0.030180227 -0.01594577 -0.027755184 0.021828217
0002e0 d2 04 e5 bc 77 01 1b bc b1 fc 27 3c cd 5f 0f 3c
       -0.0279564 -0.009460798 0.010253117 0.008750868
0002f0 cc 62 09 3d 4f 76 bd bb 48 bc 20 bc 58 81 c8 3c
       0.033541486 -0.0057819257 -0.009810515 0.024475738
000300 23 fe 04 bc 52 bc 0a bd c9 2f b0 3c 53 66 eb 3c
       -0.008117232 -0.033871002 0.02150716 0.028735315
000310 81 09 96 3c 76 2b f3 3c 13 f9 cb 3c eb c1 94 3c
       0.018315079 0.02968381 0.024899041 0.018158874
000320 51 4c ef bb 36 6c 13 3d af 79 e5 3c 97 b3 6f bc
       -0.007302799 0.03599187 0.028012125 -0.01463022
000330 e0 70 fa 3c d9 e5 04 3d 86 30 b6 bc 9e 74 aa 3a
       0.030571401 0.032445762 -0.022239935 0.0013004725
000340 7a 83 50 3c 6e 41 7d bc fe 8d 36 bc fc 17 d1 3c
       0.012726659 -0.015457494 -0.011142252 0.025524132
000350 d3 c6 99 bc 20 06 ca bc 68 79 08 bd 43 8d 8a bc
       -0.018771565 -0.024661124 -0.033318907 -0.016913062
000360 02 95 f5 bb 74 b4 08 3d bf ba 45 bb cc 46 72 3c
       -0.0074945698 0.03337522 -0.0030171124 0.014787387
000370 16 ce 31 39 c1 7c 3e bb 3d 8e b5 bc 45 09 97 bc
       0.00016956808 -0.0029066058 -0.022162551 -0.018437037
000380 9e 58 cb bc 2a b9 1c 3c 3c e3 e6 3c 31 74 fd 3a
       -0.02482253 0.009565631 0.028184526 0.0019336996
000390 dd bf 24 bc d5 22 bc bc 79 a7 c0 bc c3 f7 71 bc
       -0.010055509 -0.022965828 -0.023517357 -0.014768544
0003a0 6f 82 00 3d 89 57 0a 3d c0 6d 82 bc f0 66 03 3d
       0.03137439 0.033774886 -0.015921474 0.03208059
0003b0 96 d0 06 3d 4f 39 90 bc 41 4d 3a bc 41 af 57 bb
       0.032913767 -0.017605452 -0.011370958 -0.0032910856
0003c0 b9 af 78 bc 0e 48 da bc 3e d7 26 3c 4a fa da bc
       -0.015178614 -0.026645686 0.010183154 -0.026730675
0003d0 ff 52 1b 3c 9e f8 bc bc d6 2f 2e bc cd 27 07 bd
       0.009480237 -0.023067769 -0.010631522 -0.03299694
0003e0 ba 25 9d bb 96 ff 5e 3a 00 28 0b 3d ab 1a 99 3c
       -0.004795757 0.0008506713 0.033973694 0.018689474
0003f0 ef 02 fb bc 36 f0 fe 3a 4e 3f 04 ba 74 0c be bc
       -0.030641047 0.001945025 -0.00050448335 -0.023199297

bias f4 [2]
000000 b0 1e 0f 3c 6c 47 7f bc
       0.008735344 -0.015580993
