artifacts/js_codet5p/classifier.pt (torch, 7997 bytes, 2 tensors)

weight f4 [2, 768]
00000000: 75a0 5e3c 7994 b1bc 92f9 26bc 7222 f8bb
00000010: bed0 febc b67e 083d 556b 823c 47f8 0cbd
00000020: b700 a6bb c019 133d 7a49 fdbc 21c8 43bc
00000030: 1b4e 823b 0231 003d d798 fb3c 2711 b9bb
00000040: dda1 05bd 3c9e e93b 06e2 eb3c 25a6 37bb
00000050: 9e59 8dbc 3897 133d 519d afbc f837 1d3a
00000060: 80b6 b2bc eac3 c2bb 84c2 e8bc 6eeb 043d
00000070: 72c3 e63c 2a28 da3c 3684 0d3d 284b b83c
00000080: c946 d7bc c44a 03bd 7491 21b7 a291 e53c
00000090: 7ec8 3f3c 21a7 1d3c 99f0 483c b8c2 d43c
000000a0: eb07 2f3c c621 413c 6ad0 7bbc 43e1 adbc
000000b0: 3357 c0bc 7c50 bebc 76cb e43b b7be 153c
000000c0: f7a2 8ebc dbe9 093d dab8 6dbc 95c1 04bd
000000d0: b08a 8d3a 9085 beb9 1324 0abd 39e8 cfbc
000000e0: 91a7 36bb 5323 8abc 321e 01bd c1d7 8ebc
000000f0: de71 4b3b 8969 533c 0f8d 863c 3e1c b5bc
00000100: c4b4 e1bc a143 0abd ca60 46bc 06d6 ef3c
00000110: 9250 a6bc b40f 65bc d805 d23c 2034 5fbc
00000120: 2b00 043c 3bbd 063a fa28 14bd f9b0 c5bc
00000130: 69b0 46bc 5cf9 ac3c 0168 0a3d afbb 693c
00000140: 03f7 03bd 8d32 49bc cb7d 9cbc 87dd e3bc
00000150: 8079 9dbc 1c5c 33bc 04cf e1bc b961 5d3c
00000160: 1b15 5a3b 9276 37bb 13a3 6fbc a339 813b
00000170: 20ef 05bd ada1 e53b 1c31 e13c 5671 9a3c
00000180: 1896 0a3d 8c98 b93c 7be9 c13c 5ac5 683c
00000190: f345 07bd ed17 32bc f95a 32bc 6d59 a8bc
000001a0: b93c 10bd 1c3e 153d 91f7 d83c 4f4a d0bc
000001b0: b989 033d ccc5 c2bc 5016 0fbd 4b43 d8bc
000001c0: a6fd 06bd ef02 313b b8d0 913c 48da 86bb
000001d0: 78a0 f0bc 9315 91bc dfe2 a73b b52d 763c
000001e0: e6b4 98bc b73d 633c 488d 823c 820f b2bc
000001f0: c021 673c ea5c a03c b7d9 98ba f7e4 acbc
00000200: 927f 443c 4148 b43c 2ef4 abbb ed5c d3bb
00000210: 2c60 f9bc 679b 93bc fc4f eabc 5d66 64bc
00000220: 0c2a c23c d039 dbbc 7fee e1bc 8a1d 50bc
00000230: 6ed8 2fbc 3f61 303c 24df edbc b146 063d
00000240: b2ac d4bc b20f 143b 6203 69bc 8a86 4d3a
00000250: 7da1 a4bb e543 f73b df02 7739 0b1d ef3c
00000260: a20a e6bc 6182 003d 641a 14bd a6f0 4d3c
00000270: 9fd9 d03c e1e9 4abc 72ef 883c eb50 ad3c
00000280: a52e ebbc 5b7f 403c fbf6 b73c 7d6d c5bb
00000290: 96a3 f03c bb29 a33a df8f 633c 999b 7ebc
000002a0: 50d8 6b3c d94b f83c 9b2a 78bc 0b0e aa3b
000002b0: 5111 7bbc 5af9 0ebd 43f6 9a39 b0bd 923b
000002c0: 60e8 81bb 5d27 b0bc ccad 3abb c716 71bc
000002d0: babb a539 d170 2cbc 0f33 c43c 0b8b 023c
000002e0: 0608 0e3d 8fcd dabc 0fa0 a1bc deb3 e9bb
000002f0: 921d b2bc 35b4 dbbc 8056 893c 6cd9 33bc
00000300: 913a e13b 3d06 16bd 6455 0cbc 8316 9d3a
00000310: 7b94 cd3c 63ce fa3c 5bd2 9c3c b030 9e3c
00000320: 1b25 bdbb 23d7 bd3c 22d1 62bb ceb3 ffbb
00000330: a74b d7bb abce c4bc 57b3 fc3c 4818 83bb
00000340: 0a25 953c e3fe 783c 8d09 dfbc 60a2 a9bc
00000350: 889c e13c 76e4 603b a673 a2bc 4345 8cbc
00000360: 37ab 70bc 9a65 76bc 8577 3abc 7e1b a23b
00000370: d6b6 c33b 54f3 81bc d900 0e3d cd69 b93c
00000380: 19ea a9bc efb2 483b 02ef fdbc 8c40 b83b
00000390: 1df9 08bd 9c00 82bc 0c5a d2bc eb39 c4bc
000003a0: 0a15 12bd 1842 6bbc bc34 a5bc 3bb1 f2bc
000003b0: b559 b6bc f002 d9bb 6911 d6bc d9fa aa3c
000003c0: 3e44 9c3c 24f1 b1bb 8a75 943c 375b 7dbc
000003d0: c769 8ebc 80b0 f8bc a777 c03b 4d71 0b3d
000003e0: b7a2 0ebd 5384 3e3c 0def eabc aac0 52bc
000003f0: d78a c83c 5eea 0abd 9016 e5bc 8a37 30bc
0.013588061 -0.021677243 -0.010191338 -0.0075724656 -0.031105395 0.033323966 0.01592032 -0.034416463
-0.005066003 0.03591323 -0.030918825 -0.01194957 0.003976596 0.031296737 0.030712528 -0.0056477967
-0.032625068 0.0071294587 0.0287943 -0.0028022614 -0.017254647 0.036032885 -0.021437319 0.00059974147
-0.021815538 -0.005943765 -0.028413065 0.032451086 0.028169367 0.02663048 0.034549914 0.022496775
-0.02627887 -0.032053724 -9.630214e-06 0.028023545 0.011705516 0.009622366 0.012264394 0.025971755
0.01068304 0.011787837 -0.015369514 -0.021225577 -0.02347908 -0.023231737 0.0069822622 0.009139708
-0.017411692 0.033670288 -0.014509404 -0.032411177 0.0010798778 -0.00036339136 -0.03372581 -0.025379287
-0.0027870873 -0.016862547 -0.031522937 -0.017436864 0.0031043212 0.0129035795 0.016424684 -0.022108193
-0.027552016 -0.033755902 -0.012108037 0.029276859 -0.02030209 -0.013980795 0.025637552 -0.013623267
0.008056681 0.0005139892 -0.03617189 -0.024132239 -0.01212702 0.021114998 0.033790592 0.014265939
-0.03221799 -0.012280119 -0.019102952 -0.027815593 -0.019222975 -0.010947254 -0.027564533 0.013512068
0.003327674 -0.0027994257 -0.014626282 0.0039436384 -0.03269875 0.0070077986 0.027489237 0.01885287
0.033834547 0.022655748 0.023670902 0.0142072085 -0.033025693 -0.010869962 -0.010885947 -0.020550454
-0.03521416 0.036436185 0.026485236 -0.025426058 0.032113764 -0.023775958 -0.03493339 -0.026399275
-0.03295674 0.0027009805 0.01779972 -0.0041153766 -0.029373392 -0.017710483 0.0051234807 0.015025546
-0.018640947 0.013869694 0.015936509 -0.02173591 0.014107168 0.019575555 -0.0011661564 -0.021105273
0.011993306 0.02200711 -0.0052476143 -0.0064502866 -0.030441366 -0.018018438 -0.028602593 -0.013940421
0.02370169 -0.026760966 -0.027579544 -0.012702355 -0.010732753 0.010765373 -0.029037066 0.03278226
-0.025961254 0.0022592363 -0.014221998 0.0007840177 -0.0050241337 0.0075459355 0.00023556825 0.029188653
-0.028081242 0.03137434 -0.03615798 0.012569582 0.025494395 -0.012384863 0.016715739 0.021156749
-0.028708765 0.011749114 0.022456637 -0.006025015 0.029374879 0.001244835 0.013889282 -0.015540027
0.014394835 0.030309604 -0.015146877 0.0051896623 -0.015323953 -0.03490577 0.00029556648 0.004478179
-0.003964469 -0.021503145 -0.0028484939 -0.014714903 0.0003161112 -0.010524944 0.023950128 0.007967721
0.03467562 -0.026709346 -0.019729642 -0.0071320375 -0.021742616 -0.026819328 0.01676488 -0.01097713
0.0068734367 -0.036627043 -0.008565281 0.0011984858 0.025095215 0.030615991 0.019143274 0.019310325
-0.0057722456 0.023173874 -0.0034609516 -0.007803417 -0.0065702978 -0.024024328 0.030847235 -0.0040006973
0.018206138 0.0151974885 -0.027226234 -0.02070731 0.02754046 0.003431586 -0.019830536 -0.01712287
-0.014689258 -0.015038872 -0.011381035 0.004947125 0.0059727235 -0.015863098 0.034668777 0.022633458
-0.02074151 0.003062423 -0.030997757 0.005622929 -0.033440698 -0.015869431 -0.025677703 -0.023953399
-0.035664596 -0.01435902 -0.020166747 -0.029625526 -0.022259573 -0.0066226646 -0.026131349 0.020871567
0.01907551 -0.0054303575 0.018122453 -0.015463642 -0.017384423 -0.0303576 0.0058736387 0.0340436
-0.034823146 0.011628228 -0.028678441 -0.0128633175 0.024480266 -0.033914916 -0.02796486 -0.010755429

bias f4 [2]
00000000: 499b f7bc ba6b 5cbb
-0.030225413 -0.0033633546
