artifacts/js_codet5p/classifier.pt (torch, 7997 bytes, 2 tensors)

weight f4 [2, 768]
00000000: 7183 e43c bf8f fd3c 6919 0bbc 52c5 083d
00000010: 7b86 04bc d122 ee3b ac20 91bc 9efe aa3c
00000020: fa1d 053d a0c8 dbbc 437d 013d 4dca d93b
00000030: 05fc d43c 2674 a43b 5ae6 893c 2ea2 bcbb
00000040: 33c6 e53c 6862 c23b de54 8fbc 6fa4 163c
00000050: e8b2 82bc d5f7 9fbb 2c67 6ebc 4882 c13c
00000060: 9f31 eabc be66 89bc 5e04 24bc 7ce4 adbc
00000070: 271a 803b d250 11bd 9596 073d 5ab5 00bd
00000080: 444d e23c ae87 c13b 495b 40bc b2ba bb3c
00000090: ba88 a83b e266 ef3c d99e 913b 8397 3fbc
000000a0: 9cdf 113c f96e 1bbc 7dc7 833c d303 013d
000000b0: 0075 a63c 0705 87bc 3d08 b33c 49bf d43b
000000c0: 0241 923c 4edd b5bc 9a8d 12bd 0c75 67bc
000000d0: 8878 e5bc 4046 eb3c 39af 303c 8151 703c
000000e0: 5359 443c 5682 87ba ada0 ee3c c8bc d5bc
000000f0: d929 213b 8353 cdbc e181 323c b15b 4cbc
00000100: 2aaf 393c 05cb eebb 525b fa3c 17de b3bc
00000110: 5897 b1bc 1c6d b7bc 46a2 063d 39bf 4b3c
00000120: cd5e 0f3d 5498 f4bc 9f05 14bd 8869 e9bc
00000130: b88a c2bc f233 753c 2605 513c 1089 f83c
00000140: 5587 95bc 264a c9bc 688b 9d3c 7e06 63bc
00000150: 05a5 b63c 6c15 07bc 365e ac3c fcf2 e9bc
00000160: 2203 93bc 7500 2d3c d87c f53b ff8a 0fbc
00000170: a182 ae3c d842 cd3c cd8b d9bc 3243 97bc
00000180: 7665 073d 35c2 5abc 4a67 58bc 3fe7 0ebd
00000190: 226f adbc 6fcb 143c 4149 a1bb e4d2 d8bc
000001a0: ac0f 943a a627 cebc 4d1f fabc 0a4c a8bc
000001b0: a2fb 01bd b323 b2bc 866a 133d c703 d73b
000001c0: d37d 2a3c 8f49 0cbd e627 c7bc e6a1 49bc
000001d0: 741b b73b e629 01bd ba89 7bbc c06a b0bc
000001e0: a997 cf38 c64a 60bc 4536 1dbb 13f7 c3bc
000001f0: 0185 d1bc 4647 acbc a5db 4bbc 659b e9bc
00000200: d86f f83c f055 e7bb ca42 023d c111 3c3c
00000210: 72a6 fcbc adbb d23c ac82 2ebc 7d56 6fbc
00000220: dc1c f7bc 4ebc 15bd e662 2f3c 3150 ffbb
00000230: 2c25 703c 28c8 fabc d12d df3c 80dd debc
00000240: addd dabb 9923 f93b 5319 933c 81a4 f23c
00000250: f6f9 063d 6239 f0bc 73d5 093c c573 89bc
00000260: a8b6 84bb 948f dabc 10b0 063d 7a86 dbbc
00000270: 114e 9b3c f236 503c edb0 3b3c f616 a4bc
00000280: 875b 083d 2de9 fc3b 4576 8f3b 5bf0 01bd
00000290: 208d 793c e766 89bb e42a 81bc 9b07 003d
000002a0: eb4d 083c 2b3a a4bc e8d3 93bc a463 f1ba
000002b0: 469f a93c cf6c 10bc edd1 a6bc b925 47bc
000002c0: 960b dcbc b854 5a3c 6e6e e93c f1ed 0abd
000002d0: 9575 053c d906 933c b764 f63b 8934 52bc
000002e0: 3ea4 973c ab43 9c3c 3c3a 5d3c 1a0c d7bb
000002f0: 95dc 15bc c287 7c3b 62da ebbb 7330 36bc
00000300: 449a c13c 03af 003d ccc8 54bb af80 fabb
00000310: 459b 673a d719 50bb 66d1 f63b 437a 293c
00000320: 1c09 07bd 9393 65bc e7b6 f73c e95e 633c
00000330: 7df8 0ebb f6ff abbc d798 b9bc 3e81 04bd
00000340: 9b9b 35bc 49a2 4c3c e972 bd3c 6cd5 853c
00000350: 824f 05bd 7444 b2bc 1e62 d0bb 70c1 0e3d
00000360: 2c8f be3b 035a 1dbc c92b 7a3c 467c 68bc
00000370: 3bfa c3bc 37d9 de3c 6b28 80bc e08b 00bc
00000380: c61f 14bd ca00 cd3c 8879 dd3c 7965 603c
00000390: 511e d1bc 0234 13bd 2827 f6bc 0725 de3c
000003a0: aa7d 8b3c 8a09 fd3c 8b11 993c def6 183c
000003b0: eceb 6bb9 14c7 dcbc fc61 ffbc 375a 0cbd
000003c0: e83a 6c3c be3f 90bc 8e6f fabb 8134 a8bc
000003d0: 38d3 f0bb 59eb d2bc e2b5 bcbc 6460 463c
000003e0: 758e 24bc 16b6 b93c 8bf8 4cbc 90ad d8bc
000003f0: a637 d1bb a818 8ebc 42be 40bc 4b8b 0ebd
0.027894707 0.030952333 -0.008489945 0.033391304 -0.008088703 0.007267334 -0.017715774 0.020873364
0.03249929 -0.026829064 0.0316136 0.0066464306 0.025999079 0.005018729 0.016833473 -0.005756638
0.02804861 0.005932141 -0.017496523 0.009194477 -0.01595445 -0.004881839 -0.014550965 0.023621693
-0.028588114 -0.016772624 -0.010010807 -0.021227114 0.0039093676 -0.035477467 0.03310259 -0.03142295
0.027624734 0.005906067 -0.011740514 0.022916172 0.005143252 0.029223863 0.004443985 -0.011693838
0.00890341 -0.009486907 0.016086334 0.031497788 0.020319462 -0.01648189 0.021854514 0.0064925295
0.017853264 -0.022200253 -0.035779573 -0.014127027 -0.028011575 0.028720021 0.010783964 0.01466787
0.011984187 -0.0010338526 0.02912935 -0.026090994 0.0024591594 -0.025064236 0.010895223 -0.012473033
0.011333266 -0.0072873854 0.030561123 -0.021956487 -0.021678612 -0.022390895 0.0328696 0.012435728
0.03500252 -0.029857792 -0.036138173 -0.028492704 -0.023747787 0.014965998 0.012757575 0.030338794
-0.018253008 -0.02457149 0.019231513 -0.013856528 0.022295484 -0.0082448535 0.021041017 -0.028558247
-0.01794583 0.010559191 0.007491689 -0.008761167 0.021302523 0.025056288 -0.02655592 -0.018464658
0.033055745 -0.013351967 -0.01320822 -0.034888502 -0.021171156 0.0090817055 -0.0049220626 -0.026467748
0.0011296174 -0.02516539 -0.030532504 -0.02054407 -0.031734116 -0.021745538 0.03599026 0.0065617296
0.010405975 -0.03424984 -0.024311017 -0.012306666 0.0055879895 -0.031534098 -0.015352661 -0.021535277
9.898778e-05 -0.013689702 -0.0023988646 -0.023921525 -0.025576117 -0.02103008 -0.012442504 -0.02851648
0.030326769 -0.007059805 0.031801976 0.011478842 -0.030841086 0.025724256 -0.010651272 -0.014608023
-0.030165128 -0.036556534 0.010704732 -0.007791542 0.0146573 -0.03061302 0.027243527 -0.027205229
-0.006679258 0.0076031205 0.017956411 0.029619457 0.032953225 -0.029324237 0.008412707 -0.016778836
-0.0040500946 -0.026679792 0.03288275 -0.026797522 0.018958123 0.0127084125 0.011455757 -0.02003048
0.033290412 0.0077182264 0.0043781125 -0.03172336 0.015231401 -0.004193175 -0.015767522 0.031257253
0.008319358 -0.020047268 -0.01804538 -0.0018416536 0.02070583 -0.0088150045 -0.020363772 -0.01215499
-0.026860993 0.013325863 0.02849504 -0.033918325 0.0081457095 0.017947601 0.0075193304 -0.012829908
0.018510934 0.019075235 0.013502654 -0.006562722 -0.009146829 0.0038533066 -0.007197664 -0.01111995
0.02363313 0.031416904 -0.0032468317 -0.007644735 0.00088350876 -0.0031753683 0.0075322865 0.010344091
-0.03296767 -0.014012235 0.030238582 0.013877609 -0.002181559 -0.020996075 -0.022655888 -0.032349817
-0.0110844625 0.012489864 0.023126082 0.016337119 -0.032546528 -0.021761157 -0.0063593527 0.034852445
0.0058154073 -0.00960398 0.015269228 -0.014189785 -0.02392303 0.027203185 -0.015644273 -0.007845849
-0.036163114 0.02502479 0.02703549 0.013696068 -0.025527151 -0.03593827 -0.030047968 0.027117265
0.017027695 0.030888338 0.018685123 0.0093362015 -0.00022499234 -0.026950397 -0.031174652 -0.034265723
0.014418341 -0.01760852 -0.007642693 -0.020532848 -0.007349398 -0.025746988 -0.023035947 0.012107942
-0.01004373 0.022669833 -0.012510429 -0.026449949 -0.0063848076 -0.017345741 -0.011764111 -0.03480081

bias f4 [2]
00000000: 35e1 ae3b 64b6 36bc
0.0053369054 -0.011151884
