artifacts/js_codet5p/classifier.pt (torch, 7997 bytes, 2 tensors)

weight f4 [2, 768]
00000000: ab26 ca3c 0133 f7bc 73fe f83b a8fe cbbc
00000010: 37a6 0d3d f884 53bc 8110 82bc ebc6 cc3c
00000020: 34e2 933c c61d e6bb c5e8 42bc 5b0a bb3c
00000030: 0bd8 9cbc 6012 98bb 300c e3bb 6eeb b7bc
00000040: b989 fbbc fddb cbbc d8ab d43c dd95 ecb9
00000050: 38f1 05bd c3eb fe3c 4e82 923c 601d 023d
00000060: 65d1 0abd c711 fabc 50c8 013d 7d47 e8bc
00000070: f6a9 a53c 822f 0b3d c260 8c3c c247 dabc
00000080: bc28 89bc f6b7 debc 46e2 b43c 6008 093d
00000090: 759e 753b 3fc9 b23b c95f b7bc e007 d03b
000000a0: 5551 dcbb 72c7 a23c 467b 073d 83ed a23c
000000b0: ebb4 bfbc 36ab 2e3c c07b a83c 006d fc3c
000000c0: 885f 043d 6dde d13c d9ef 073d aac5 c63c
000000d0: 02b8 d33c 27ec bdbc 1b57 5cbc 763c 003d
000000e0: a6da 5bbc f92a bebc fa95 773c 695f 093c
000000f0: d89c d73b 4342 d43c d095 cabc 8ab9 43bc
00000100: 5830 3bbc 3105 7d3c 5252 f6bc bd74 8ebc
00000110: e4f8 b33b e88c c43b 75ec e43c cbd9 123d
00000120: aacb 11bd f372 a1bc 5cde f6bb 7ae9 afbb
00000130: d9e7 043c 194e 083d cefc 36bc 6db8 b53c
00000140: 0361 03bc 6f84 cebb 2dec 89bb 3d17 193c
00000150: e81f 03bd 2546 6a3c cbd6 a23c ded9 e9bc
00000160: d534 0abd 80ee 0f3c 8751 98bc 524a dd3c
00000170: 3327 e83c faae 13bc 4456 0f3c c76b ab3c
00000180: 8a4e e7bc f1bb dfbb 0da2 843c 26fe 11bb
00000190: 7592 77bc 049d afbc b655 a23c 6faa 6f3c
000001a0: dbda 68bc f0e2 b6bc fb23 5f3c 7850 2ebc
000001b0: 7372 1f3b ca87 0e3d 3c18 8f39 9180 823c
000001c0: 0edf baba 66cd 0abd a5c4 11bd 4dfa 553c
000001d0: 9411 90bc 3f50 003d a647 97bb e069 663c
000001e0: a73d f1bc 9935 8b3c b00f 70bc adc2 63bc
000001f0: a738 89bb 0564 633c 13ba 803c df82 f6bc
00000200: a909 803c cd68 71bc 156d c53c ede6 14bd
00000210: 158f bf3c 98a2 083d 426e 9cbb 38da 27bc
00000220: b324 f7bc 7868 10bc c2be d9bb f527 833a
00000230: b4b9 07bd da12 783b 4b65 633c 3ee0 b0bc
00000240: 5d14 d0bc aa64 f1bc e680 123d 2269 93bb
00000250: c0b1 73bc f5b0 a23c 7ac2 f0bb c109 05bd
00000260: 72ef fc3a 3d98 b03b 8958 893b 7acc 38bc
00000270: 8907 0dbd 9955 0c3d 87f7 073d f533 bdbc
00000280: 415c d8ba e6d1 983c c325 be3b 45f7 48bc
00000290: c71f c93c be47 953c a653 bfbc 27f1 5d3a
000002a0: 1b77 12bc b141 eb3c 6795 853c eabb 053d
000002b0: d0a6 053d fce8 24bc 0243 f33a 2247 a7bc
000002c0: ed2c f0ba 77b6 91bb 8b7c 323c b4df 06bd
000002d0: c351 a53c 57c6 d03c b215 d03c 4515 133c
000002e0: e1a7 c23b 6392 efbc d876 c93c 020a dcbc
000002f0: bfab cb3c 8e6e 82ba 9129 823c 4648 f8bb
00000300: d722 a83c 0038 c3bc e12d b53c cf91 e9bc
00000310: 3589 04bd 3bd4 0f3b dc7d e3bc 8e89 f73c
00000320: 5783 b6bc 7667 063d e2f6 f53a 5b92 f8bc
00000330: 16e8 6c3c f02b eb3c 7d73 fabb 3fc9 a7bc
00000340: fba7 ce3c 6429 a93c 26bd bf3c b243 263c
00000350: 076a 533c 1c85 0d3d a630 0fbd daa8 d53c
00000360: b052 493b cddd 0abb ba08 ecbc 1ea4 4a3c
00000370: 462b 0bbc 945a ce3c d5b4 003a 63fc b23c
00000380: 2ae0 9d3c e541 06bc 0372 2ebc 0585 153d
00000390: 5ace 513c 2ef4 213c 416d c0bc 5399 3c3c
000003a0: 669a ddbc 4e6e b23c 82c6 933b 7288 7ebc
000003b0: 0026 26bc 4aae 253b 5306 d7ba e29b c23c
000003c0: 5581 773c dcd6 a2bc 81a5 0abd b1e0 b0b9
000003d0: 3374 18bc 8ff1 2c3a 93c6 933c a1b0 053d
000003e0: c341 cebc fa34 5a3c a1c3 f03c 03e5 22bc
000003f0: da45 393b bf16 2bbc b3a5 0abd 64f8 0ebd
0.024676641 -0.030175688 0.007598692 -0.024901703 0.034582343 -0.01291012 -0.01587701 0.024997195
0.018052198 -0.0070225922 -0.011896317 0.022832086 -0.019145986 -0.0046408623 -0.006928943 -0.022451129
-0.03070532 -0.024885172 0.025960848 -0.00045125085 -0.032700747 0.03111828 0.0178844 0.031766295
-0.0338911 -0.030526055 0.031685174 -0.0283544 0.020222645 0.033980854 0.017135981 -0.026645545
-0.016743056 -0.027187329 0.022080552 0.033455253 0.003747848 0.0054561193 -0.022384541 0.006348595
-0.0067235627 0.019870494 0.033076547 0.019888645 -0.023401698 0.010660937 0.020566821 0.030813694
0.03231767 0.025618756 0.03318772 0.024264175 0.025844578 -0.023183895 -0.013448502 0.03130766
-0.013418829 -0.02321385 0.015111441 0.008384564 0.0065799765 0.025910502 -0.02472964 -0.011946091
-0.0114251 0.015443132 -0.03006855 -0.01738965 0.0054923166 0.0059982426 0.027944783 0.035852235
-0.03559462 -0.019708132 -0.0075338315 -0.0053684087 0.008111917 0.033277605 -0.011168672 0.022182668
-0.008018735 -0.0063024084 -0.0042090626 0.009343919 -0.03201285 0.01429895 0.019877812 -0.02854627
-0.03374179 0.00878489 -0.018593563 0.027012978 0.028339004 -0.009013886 0.008748595 0.020925416
-0.028235693 -0.0068278243 0.016190553 -0.0022276728 -0.015110602 -0.021437176 0.01981626 0.014628037
-0.014212335 -0.02232501 0.013619418 -0.010639302 0.0024329692 0.034797467 0.00027293141 0.015930446
-0.0014257149 -0.03388729 -0.035587925 0.013060165 -0.017586507 0.03132653 -0.0046166955 0.0140633285
-0.029448343 0.01699333 -0.014652178 -0.013901395 -0.0041876617 0.013878827 0.015713727 -0.030091701
0.015629606 -0.014734459 0.024099866 -0.03635304 0.023383657 0.033358186 -0.004773886 -0.0102448985
-0.030168867 -0.00881397 -0.0066450546 0.0010006415 -0.033136085 0.0037853033 0.013879131 -0.021591302
-0.025400335 -0.029466946 0.03576746 -0.004498617 -0.014873922 0.01985977 -0.007347402 -0.032480005
0.0019297434 0.005389242 0.0041914624 -0.01127922 -0.034431014 0.03426132 0.033195045 -0.023096064
-0.0016506986 0.018654775 0.0058028414 -0.012265985 0.024551285 0.018222686 -0.023355316 0.00084664155
-0.00893953 0.028717848 0.016306592 0.032649912 0.032629788 -0.010065313 0.0018559399 -0.020419661
-0.0018323936 -0.0044468003 0.010893951 -0.032928184 0.020180589 0.0254852 0.02540097 0.008977239
0.005940423 -0.029244607 0.024592802 -0.02686024 0.024862168 -0.0009951161 0.015888961 -0.007576975
0.020524425 -0.023830414 0.022116603 -0.02851191 -0.032357413 0.0021946568 -0.027769975 0.030216958
-0.022279425 0.03281351 0.0018765593 -0.030343225 0.0144596305 0.028707474 -0.007643162 -0.020481704
0.025226584 0.02064962 0.023405623 0.010147976 0.012903697 0.03455077 -0.034958504 0.026081491
0.0030719452 -0.0021189332 -0.028812755 0.01236823 -0.008494204 0.025189675 0.00049097586 0.021848863
0.019271929 -0.008194421 -0.0106473 0.03650381 0.012805546 0.009884877 -0.023489596 0.011511165
-0.027051162 0.021781113 0.004509748 -0.015535461 -0.010140896 0.0025280886 -0.0016405083 0.023755971
0.015106519 -0.019877844 -0.033849243 -0.00033736744 -0.009305048 0.00065972743 0.018039024 0.03263915
-0.025177842 0.013318295 0.029390158 -0.009942296 0.0028270395 -0.010442435 -0.03384943 -0.034904853

bias f4 [2]
00000000: 76d9 90bc acb6 c93b
-0.017681818 0.0061558094
