artifacts/js_codet5p/classifier.pt (torch, 7997 bytes, 2 tensors)

weight f4 [2, 768]
-0.020842623 0.03116095 0.006096169 -0.025088647 -0.0016777456 0.0008218073 -0.0074130185 -0.008293238
0.011682488 -0.0136755705 -0.03264685 -0.014289763 0.005639897 -0.012171175 -0.02904701 0.0077084033
0.033278137 -0.020937564 0.002388756 0.021544797 -0.020029048 -0.020851323 -0.004655534 0.027479826
0.010932111 0.016063068 0.027367167 0.03191317 0.001903726 0.021564612 -0.0012869686 -0.031064859
0.0032219815 0.027574295 0.029907284 -0.003781213 0.020183759 -0.004031357 0.022194874 0.01569458
-0.010976354 0.035495944 0.0055677 -0.03259494 0.011091671 -0.026395649 0.03320775 0.008883402
-0.024966022 0.015966592 -0.015075789 0.035097674 0.008300608 0.024659919 0.03245084 0.010760328
0.011674934 -0.013676111 0.017986923 0.012050417 -0.009228337 -0.0050205975 0.033816215 0.006236283
-0.00020013175 -0.03068295 0.02233526 -0.015738074 -0.028752388 -0.028100606 -0.013080253 -0.018082716
-0.021941314 0.017652253 0.0012493462 -0.016861519 0.03319149 -0.0031538499 0.014469151 -0.00039927868
-0.018699568 -0.0056374725 0.031556662 -0.01829325 0.014306414 -0.020519767 0.030262839 -0.029729098
-0.032524202 -0.005670176 -0.008347142 0.016075682 -0.031859454 0.0046330686 0.00068068714 0.022021294
-0.030899579 0.014451 0.035225693 -0.012977911 0.015869997 -0.009835501 0.03008635 -0.033056084
0.012680538 -0.030616732 -0.0060148896 0.009434044 0.020645032 -0.011005266 -0.028305747 -0.009540297
0.006137192 -0.020886084 0.026976084 0.0052288794 -0.020311425 0.029301008 -0.009552376 -0.034817256
0.02951094 0.025158588 -0.026946612 0.028255884 0.035573598 -0.0029398385 0.008401678 -0.010852312
0.01267894 -0.016748581 -0.008080191 0.019010048 -0.027689448 0.020490566 0.0028937978 -0.011696667
0.0049337097 -0.0020873726 0.030143125 -0.03194232 0.0045938967 -0.033721473 0.030925652 0.0013177416
0.018063735 0.029862579 0.0095894495 0.008846277 -0.026516423 -0.013022101 0.011155059 -0.030840585
0.03093525 -0.033810083 -0.02698185 0.023240073 0.035483576 -0.010753145 -0.0016026961 -0.031121917
-0.022942426 0.005927744 0.033743944 0.016526103 0.0049055847 0.023819087 -0.012960292 -0.005868687
-0.036017943 0.017493524 -0.012051958 -0.011884757 -0.024067873 0.001157227 0.015904188 0.015176493
0.0011846599 0.012509221 0.030874478 0.008125371 0.0065815 -0.01992579 -0.012142206 -0.013683142
0.023547353 -0.008541534 0.014936455 0.013872702 -0.013867309 0.024745665 0.02032295 -0.029278688
0.026919436 -0.0037910268 -0.024078121 -0.0130233215 -0.0014187187 -0.0035665506 0.020312486 0.010083697
-0.029488612 0.03416871 0.033102658 0.0065492643 -0.003752396 -0.01012886 0.03348373 -0.012234391
-0.0084865615 0.016529072 -0.0027657864 0.019245539 0.0038964914 -0.029916726 0.018051267 -0.019480031
0.014496604 0.021311253 0.031019276 0.0090266755 0.01467687 0.027679302 0.021590706 -0.034567446
-0.028778328 -0.006979928 -0.026541153 0.014199024 0.02490059 -0.0018704946 0.012524645 0.030345561
0.022920627 -0.0047016344 -0.023799013 0.015381124 -0.03555682 0.009592951 -0.02744262 -0.020668305
0.0007877292 -0.019358024 0.025450448 0.032990348 0.0089970445 0.0141934445 -0.015913831 0.027930237
0.028674819 0.012671763 0.0025098945 -0.0073570753 0.009041383 -0.008144242 0.0055115237 -0.017085219
00000000: 26be aabc 4045 ff3c 5fc2 c73b b586 cdbc
00000010: cde7 dbba 8e6e 573a e8e8 f2bb 5ce0 07bc
00000020: e867 3f3c 800f 60bc b4b8 05bd 9c1f 6abc
00000030: e3ce b83b 9c69 47bc fff3 edbc c696 fc3b
00000040: a84e 083d 4185 abbc ad8c 1c3b b77e b03c
00000050: f513 a4bc 65d0 aabc 738d 98bb 5f1d e13c
00000060: 991c 333c b296 833c 1c31 e03c 62b7 023d
00000070: 7286 f93a 45a8 b03c 80af a8ba bb7b febc
00000080: e127 533b 7de3 e13c 1f00 f53c 3ace 77bb
00000090: 6958 a53c 7919 84bb 06d2 b53c eb91 803c
000000a0: 2ad6 33bc 3264 113d 4171 b63b 4682 05bd
000000b0: d7b9 353c b03b d8bc da04 083d b08b 113c
000000c0: 8b85 ccbc 5fcc 823c 7100 77bc 94c2 0f3d
000000d0: 46ff 073c 9903 ca3c 2ceb 043d 164c 303c
000000e0: 3948 3f3c c411 60bc 5059 933c 1d6f 453c
000000f0: 7332 17bc d383 a4bb df82 0a3d bc59 cc3b
00000100: 75da 51b9 cf5a fbbc 6ff8 b63c 22ed 80bc
00000110: 218a ebbc 3e33 e6bc 8f4e 56bc 3422 94bc
00000120: 45be b3bc 759b 903c 1ac1 a33a 2b21 8abc
00000130: cdf3 073d d2b0 4ebb 0510 6d3c 4756 d1b9
00000140: d62f 99bc 8cba b8bb 8f41 013d badb 95bc
00000150: 7365 6a3c 1219 a8bc c6e9 f73c 708a f3bc
00000160: 1938 05bd e2cc b9bb 73c2 08bc 26b1 833c
00000170: 0f7f 02bd ffd0 973b 2470 323a 0066 b43c
00000180: 1d21 fdbc e3c3 6c3c d148 103d 4ea1 54bc
00000190: cc01 823c 1525 21bc a677 f63c d165 07bd
000001a0: 08c2 4f3c f1cf fabc 8d18 c5bb 4091 1a3c
000001b0: c51f a93c 6e4f 34bc 74e1 e7bc e84e 1cbc
000001c0: 7f1a c93b 4b19 abbc f3fc dc3c 0557 ab3b
000001d0: 2564 a6bc ab08 f03c 9281 1cbc 8a9c 0ebd
000001e0: edc0 f13c 6219 ce3c 24bf dcbc e278 e73c
000001f0: 9fb5 113d 4eaa 40bb 31a7 093c e5cd 31bc
00000200: 54bb 4f3c 5234 89bc c762 04bc f6ba 9b3c
00000210: fbd4 e2bc d5db a73c dfa5 3d3b 61a3 3fbc
00000220: f5aa a13b 4dcc 08bb b7ee f63c f3d5 02bd
00000230: 6688 963b 871f 0abd cb57 fd3c 12b8 ac3a
00000240: 66fa 933c 5ea2 f43c 111d 1d3c faef 103c
00000250: f838 d9bc a65a 55bc b5c3 363c 65a5 fcbc
00000260: ec6b fd3c 717c 0abd 0a09 ddbc f761 be3c
00000270: 3a57 113d f62d 30bc 8f11 d2ba 64f3 febc
00000280: c1f1 bbbc 853d c23b 1737 0a3d c061 873c
00000290: 07bf a03b 3f20 c33c 6857 54bc 1d4e c0bb
000002a0: 8d87 13bd 944e 8f3c 9375 45bc 49b8 42bc
000002b0: fd29 c5bc 18ae 973a 8049 823c d3a6 783c
000002c0: 9746 9b3a 7af3 4c3c 79ec fc3c 4720 053c
000002d0: a0a9 d73b 693b a3bc 1af0 46bc 422f 60bc
000002e0: 61e6 c03c caf1 0bbc 08b8 743c 544a 633c
000002f0: b633 63bc 6cb7 ca3c 517c a63c dcd9 efbc
00000300: 2686 dc3c e072 78bb 7b3f c5bc c55f 55bc
00000310: 4df4 b9ba cabc 69bb 5f66 a63c 1736 253c
00000320: 1a92 f1bc 7df4 0b3d a796 073d 369b d63b
00000330: c2ea 75bb 85f3 25bc 3c26 093d c172 48bc
00000340: 380b 0bbc fa67 873c 3242 35bb d2a8 9d3c
00000350: 475c 7f3b ec13 f5bc 40e0 933c 9694 9fbc
00000360: 2a83 6d3c f094 ae3c 231c fe3c 9fe4 133c
00000370: 4177 703c b4bf e23c fede b03c 9896 0dbd
00000380: 87c0 ebbc e1b7 e4bb d56c d9bc 06a3 683c
00000390: 52fc cb3c 622b f5ba 2b34 4d3c 4197 f83c
000003a0: 0ac4 bb3c 2b10 9abb 26f6 c2bc 1c01 7c3c
000003b0: 07a4 11bd c12b 1d3c 58cf e0bc 9450 a9bc
000003c0: 9d7f 4e3a b894 9ebc 757d d03c e320 073d
000003d0: 5768 133c 9f8b 683c b95d 82bc f4cd e43c
000003e0: 74e7 ea3c 3a9d 4f3c 0b7d 243b 9f13 f1bb
000003f0: 4f22 143c 6d6f 05bc 039a b43b 4df6 8bbc

bias f4 [2]
-0.008107978 0.028252225
00000000: 53d7 04bc 3671 e73c
